…
_mode='rgb',\n","                 shuffle=False,\n","                 num_parallel_calls=AUTOTUNE)"]},{"cell_type":"code","execution_count":null,"metadata":{"colab":{"base_uri":"https://localhost:8080/"},"id":"M2pTpbS80ffC","outputId":"d7cadc05-2365-4c0f-e0d8-f97d48464de8"},"outputs":[{"output_type":"stream","name":"stdout","text":["Model: \"sequential\"\n","_________________________________________________________________\n"," Layer (type)                Output Shape              Param #   \n","=================================================================\n"," conv2d (Conv2D)             (None, 222, 222, 32)      896       \n","                                                                 \n"," batch_normalization (Batch  (None, 222, 222, 32)      128       \n"," Normalization)                                                  \n","                                                                 \n"," max_pooling2d (MaxPooling2  (None, 111, 111, 32)      0         \n"," D)                                                              \n","                                                                 \n"," conv2d_1 (Conv2D)           (None, 109, 109, 32)      9248      \n","                                                                 \n"," conv2d_2 (Conv2D)           (None, 107, 107, 32)      9248      \n","                                                                 \n"," max_pooling2d_1 (MaxPoolin  (None, 53, 53, 32)        0         \n"," g2D)                                                            \n","                                                                 \n"," conv2d_3 (Conv2D)           (None, 51, 51, 64)        18496     \n","                                                                 \n"," max_pooling2d_2 (MaxPoolin  (None, 25, 25, 64)        0         \n"," g2D)                                                            \n","                                                                 \n"," dropout (Dropout)           (None, 25, 25, 64)        0         \n","                                                                 \n"," flatten (Flatten)           (None, 40000)             0         \n","                                                                 \n"," dense (Dense)               (None, 64)                2560064   \n","                                                                 \n"," dense_1 (Dense)             (None, 64)                4160      \n","                                                                 \n"," dense_2 (Dense)             (None, 4)                 260       \n","                                                                 \n","=================================================================\n","Total params: 2602500 (9.93 MB)\n","Trainable params: 2602436 (9.93 MB)\n","Non-trainable params: 64 (256.00 Byte)\n","_________________________________________________________________\n"]}],"source":["def create_model():\n","    model = tf.keras.m
…
